Encoder(
  (conv2d): Sequential(
    (0): Conv2d(1, 16, kernel_size=(1, 3), stride=(1, 1), padding=(0, 1))
    (1): BatchNorm2d(16, eps=1e-05, momentum=0.1, affine=True, track_running_stats=True)
    (2): PReLU(num_parameters=1)
    (3): Conv2d(16, 32, kernel_size=(1, 3), stride=(1, 1), padding=(0, 1))
    (4): BatchNorm2d(32, eps=1e-05, momentum=0.1, affine=True, track_running_stats=True)
    (5): PReLU(num_parameters=1)
    (6): Conv2d(32, 128, kernel_size=(1, 3), stride=(1, 1), padding=(0, 1))
    (7): BatchNorm2d(128, eps=1e-05, momentum=0.1, affine=True, track_running_stats=True)
    (8): PReLU(num_parameters=1)
  )
  (fc): Linear(in_features=11520, out_features=1, bias=True)
)
Decoder(
  (fc): Linear(in_features=1, out_features=2880, bias=True)
  (deconv2d): Sequential(
    (0): ConvTranspose2d(32, 16, kernel_size=(1, 3), stride=(1, 1), padding=(0, 1))
    (1): BatchNorm2d(16, eps=1e-05, momentum=0.1, affine=True, track_running_stats=True)
    (2): PReLU(num_parameters=1)
    (3): ConvTranspose2d(16, 1, kernel_size=(1, 3), stride=(1, 1), padding=(0, 1))
  )
)
Adam (
Parameter Group 0
    amsgrad: False
    betas: (0.9, 0.999)
    capturable: False
    differentiable: False
    eps: 1e-08
    foreach: None
    fused: None
    lr: 0.001
    maximize: False
    weight_decay: 0.0005
)
MSELoss()
Epoch [1/800], Saved!
Epoch [1/800], Loss: 3.5488
Epoch [2/800], Saved!
Epoch [2/800], Loss: 2.8610
Epoch [3/800], Saved!
…
